layer2_init.npy (npy, 160128 bytes, 1 tensors)

array f4 [200, 200]
00000000: 2f4f 8ebd e98e 933d d89e 4c3c 4a64 693d
00000010: e4c6 bfbd d7cd f43d a832 75bd 129e 433d
00000020: 0e7e a0bd 4245 073d a806 5bbc 7f5c e33d
00000030: 3374 a23d 60e4 5abc b2b7 8dbd 008c 5039
00000040: 88ce 383c eabb 223d 56ac 743d a81f 82bc
00000050: 9098 8fbd 50ae c1bb 20a8 adbd 2d5f ea3d
00000060: 138c 983d ffd0 7bbd e99c d2bd 4a63 1a3d
00000070: e13a 99bd a86c c6bc 6936 933d d45f 9e3c
00000080: 95ee 9c3d e921 9b3d 5e59 2d3d 7e10 1c3d
00000090: 9624 62bd 9ac9 82bd 6b00 e03d a0d6 0a3b
000000a0: 1118 f0bd b170 d43d be3a d5bd e264 453d
000000b0: b1ad fa3d ca31 7c3d 4f97 edbd ec87 f5bc
000000c0: 8ce0 a9bc ba9f 413d f4be b5bc 617a e13d
000000d0: 8eb0 233d 1e4e 073d 128d 5bbd 1d05 cfbd
000000e0: d24a bcbd a509 803d a0ce 6dbb cd62 e73d
000000f0: 09ee d33d fad2 9abd c494 fcbc 64cc ce3c
00000100: f093 9cbc 0161 c93d 1388 e6bd 05ab a13d
00000110: ebcf f2bd 48fe 35bc 1c8d 883c 4521 b63d
00000120: eeeb 513d da48 acbd 387f 673c 29ad bf3d
00000130: 883d 8fbc 2e3b 453d cfbb b2bd 5700 a83d
00000140: 2cb5 a83c 5823 2e3c c898 1a3c bb06 cc3d
00000150: c605 333d 0801 44bd ca2f 82bd 8b0d c63d
00000160: 6250 67bd 7006 c6bd e470 14bd 14eb a03c
00000170: 70e7 aabc 12ef 2fbd df07 cb3d fb5b e33d
00000180: 9583 a73d 5a62 213d f6b4 663d 6803 87bc
00000190: f0a5 18bc 8864 0bbd ce58 0cbd b870 83bd
000001a0: d75f cabd b07d d83b 32ee 773d 2c88 59bd
000001b0: f0b7 98bc f0c1 af3b 5c72 05bd b058 d6bd
000001c0: da8a 643d 5154 7abd ccf3 ba3c 8b38 edbd
000001d0: fb7d db3d ecf1 b03c a18a aa3d 57f5 df3d
000001e0: c6c5 18bd a89c e1bd 9cd6 b0bd ec13 fa3c
000001f0: d030 a23b 3093 ebbd 1e5b dabd bd67 8d3d
00000200: 863f 37bd 8f98 c9bd 7f40 ad3d ea26 3c3d
00000210: 42ae 17bd 05f4 a33d a2f5 a4bd 4048 5dbc
00000220: 3ebe 163d 5275 80bd 959a f43d a70d acbd
00000230: e6e7 363d f40d 2bbd 0cdb 2fbd 3885 3b3c
00000240: 0091 d8b9 d425 f73c b8f7 a7bd 800a 61bd
00000250: 162c 393d 1730 8ebd 46b1 81bd e95a d73d
00000260: eeaf bfbd 266f 3dbd 8a67 403d 0c67 a53c
00000270: 5368 f43d 2958 e23d 40a3 163b 7e5f 1a3d
00000280: dc5a fb3c 5e26 2ebd ee2d 20bd 05c4 d03d
00000290: 9b85 77bd 5bdc f43d 0629 91bd 00b6 3ebd
000002a0: 70a9 e8bd 6b6f ea3d 98d2 8dbd ddde 8fbd
000002b0: 8029 e83a 8486 edbd 0838 8bbd aa21 f1bd
000002c0: dece 2f3d 4f5c b73d f8e1 4a3c 3696 1dbd
000002d0: f4ed 35bd a2a7 91bd 9ee1 f2bd f638 673d
000002e0: 1366 e83d 8665 793d eef3 6f3d 8f8b bc3d
000002f0: b8ad 43bd 5344 cf3d 5c8c dfbd f09c 973b
00000300: 2848 a9bd 4f26 a83d 6089 f8bc 22d7 253d
00000310: f1cf dabd a66b f5bd f0ee 873b c288 0f3d
00000320: b00a 16bc a70f 9e3d eaf9 8fbd 4c13 fb3c
00000330: 104d 04bd bea8 3e3d f055 a3bd 91fa c73d
00000340: 4b2a a43d 9d7d ca3d 4d04 c73d 6e3e 48bd
00000350: 509e 19bd c476 54bd f2ae 1d3d cec8 2f3d
00000360: 0690 2a3d 64d8 a13c bc05 66bd 0af2 8bbd
00000370: b30b d03d 82ef a4bd 64bc e7bd 20d4 13bb
00000380: 2504 8b3d fafa 2e3d 3cbc be3c 6012 eabb
00000390: d176 8e3d 7c89 973c 004a 233a 49ca aa3d
000003a0: fde3 f13d 58d4 2d3c 60f2 c7bd b4ea 0cbd
000003b0: 40c3 96ba 4ce9 c2bd f763 ba3d 86fb 2b3d
000003c0: 807b e23a 4e17 173d 5ec2 723d fa3c 683d
000003d0: ac9a c5bc 33ff c43d 9fd0 78bd a7f7 75bd
000003e0: 823d 10bd f649 debd 6091 20bb ff37 b83d
000003f0: 052a e8bd c244 783d 081c f9bc c6b5 1ebd
-0.06948697 0.07204992 0.012489043 0.05698041 -0.09364107 0.11953323 -0.059862763 0.04775817
-0.07836543 0.033025034 -0.013368286 0.111016266 0.079323195 -0.013360113 -0.06919803 0.0001988858
0.01127971 0.03972999 0.059734665 -0.015884236 -0.07011521 -0.0059106722 -0.08479333 0.114439346
0.07448592 -0.06147861 -0.102838345 0.037692346 -0.074819334 -0.024221733 0.07188112 0.019332804
0.076626934 0.07574827 0.042321555 0.038101666 -0.055210672 -0.06386109 0.1093758 0.0021185055
-0.1172334 0.10373057 -0.10411595 0.048191912 0.1224016 0.06157092 -0.116011254 -0.02997204
-0.020736955 0.047271468 -0.02218578 0.1100967 0.039963298 0.033033483 -0.053601332 -0.10108397
-0.09193958 0.062518395 -0.0036286488 0.11298142 0.10348136 -0.07559772 -0.030832656 0.025243945
-0.01911351 0.09832955 -0.11256423 0.078939475 -0.118560635 -0.011107989 0.016668849 0.088930644
0.05125039 -0.08412333 0.014129452 0.093591996 -0.017485395 0.04815214 -0.08727228 0.0820319
0.020594202 0.010628544 0.00943584 0.09962221 0.043706678 -0.047852546 -0.06356771 0.09670552
-0.056473143 -0.096691966 -0.036240473 0.019643344 -0.020862311 -0.042952605 0.09913611 0.11101528
0.08179394 0.039400436 0.05632492 -0.016481116 -0.009316906 -0.03403142 -0.03426438 -0.06417984
-0.09881561 0.00660678 0.060529895 -0.05310838 -0.018642396 0.0053636953 -0.032579765 -0.104661345
0.05579648 -0.061115567 0.02282133 -0.1158305 0.10717388 0.021599732 0.083272226 0.10935467
-0.037297986 -0.11016208 -0.086346835 0.030527078 0.0049496666 -0.11502683 -0.106619105 0.06904552
-0.044738315 -0.09843551 0.08459567 0.04593555 -0.03703142 0.080055274 -0.08054663 -0.013505995
0.036802523 -0.06272377 0.11943547 -0.084010415 0.04465475 -0.041761354 -0.04293351 0.011445336
-0.00041306764 0.030169405 -0.082015455 -0.054941654 0.04520806 -0.06942766 -0.0633264 0.105153866
-0.09359728 -0.046248578 0.046973743 0.020190738 0.11933961 0.110519715 0.0022985488 0.037688725
0.030682974 -0.04251706 -0.039106302 0.10193638 -0.06043015 0.11956092 -0.07087903 -0.046560287
-0.11360443 0.114470325 -0.06924933 -0.0702493 0.0017712563 -0.115979224 -0.067977965 -0.11773999
0.042921893 0.08953153 0.012382977 -0.03847333 -0.044416383 -0.071120515 -0.11859439 0.056450807
0.11347594 0.060887836 0.05858224 0.09206306 -0.047773093 0.10120454 -0.10915443 0.0046268627
-0.08265716 0.08210432 -0.030338943 0.04048837 -0.10684193 -0.11983423 0.0041483566 0.03504253
-0.009157822 0.07717829 -0.07030089 0.03064885 -0.032300055 0.046547644 -0.07975376 0.097645886
0.08015879 0.0988724 0.09717617 -0.048887663 -0.037504494 -0.051871076 0.03849692 0.04291611
0.041641258 0.019756503 -0.056157812 -0.06833275 0.101584814 -0.08053495 -0.113152295 -0.0022556856
0.067879 0.04271982 0.023283117 -0.0071433038 0.06956256 0.018498175 0.00062289834 0.08339364
0.118110634 0.010609709 -0.09763026 -0.034403518 -0.0011502281 -0.09517154 0.09101098 0.04198792
0.0017279238 0.03688746 0.059267394 0.056698777 -0.024121605 0.09618988 -0.06074583 -0.060050633
-0.03521491 -0.10853951 -0.0024500713 0.089950554 -0.113361396 0.060612448 -0.030408874 -0.03874757
